module attributes {torch.debug_module_name = "Linear"} {
  memref.global "private" constant @__constant_11x11xf32 : memref<11x11xf32> = dense<"…">
  memref.global "private" constant @__constant_11xf32 : memref<11xf32> = dense<[0.251600713, 0.176484793, 0.164553955, 0.187063128, -0.117918655, -0.0012137217, 0.23328644, 0.059574835, -0.229450032, -0.0504425205, 0.0103477966]>
  func.func @forward(%arg0: memref<1x11xf32>) -> memref<f32> {
    %c0 = arith.constant 0 : index
    %c11 = arith.constant 11 : index
    %c1 = arith.constant 1 : index
    %cst = arith.constant 0.000000e+00 : f32
    %0 = memref.get_global @__constant_11xf32 : memref<11xf32>
    %1 = memref.get_global @__constant_11x11xf32 : memref<11x11xf32>
    %2 = memref.alloca() : memref<11x11xf32>
    scf.parallel (%arg1, %arg2) = (%c0, %c0) to (%c11, %c11) step (%c1, %c1) {
      %8 = memref.load %1[%arg1, %arg2] : memref<11x11xf32>
      memref.store %8, %2[%arg2, %arg1] : memref<11x11xf32>
      scf.yield
    }
    %3 = memref.alloca() : memref<1x11xf32>
    scf.parallel (%arg1, %arg2) = (%c0, %c0) to (%c1, %c11) step (%c1, %c1) {
      memref.store %cst, %3[%arg1, %arg2] : memref<1x11xf32>
      scf.yield
    }
    %4 = memref.alloca() : memref<1x11xf32>
    memref.copy %3, %4 : memref<1x11xf32> to memref<1x11xf32>
    scf.parallel (%arg1, %arg2) = (%c0, %c0) to (%c1, %c11) step (%c1, %c1) {
      scf.for %arg3 = %c0 to %c11 step %c1 {
        %8 = memref.load %arg0[%arg1, %arg3] : memref<1x11xf32>
        %9 = memref.load %2[%arg3, %arg2] : memref<11x11xf32>
        %10 = memref.load %4[%arg1, %arg2] : memref<1x11xf32>
        %11 = arith.mulf %8, %9 : f32
        %12 = arith.addf %10, %11 : f32
        memref.store %12, %4[%arg1, %arg2] : memref<1x11xf32>
      }
      scf.yield
    }
    %5 = memref.alloca() : memref<1x11xf32>
    scf.parallel (%arg1, %arg2) = (%c0, %c0) to (%c1, %c11) step (%c1, %c1) {
      %8 = memref.load %4[%c0, %arg2] : memref<1x11xf32>
      %9 = memref.load %0[%arg2] : memref<11xf32>
      %10 = arith.addf %8, %9 : f32
      memref.store %10, %5[%arg1, %arg2] : memref<1x11xf32>
      scf.yield
    }
    %6 = memref.alloca() : memref<f32>
    memref.store %cst, %6[] : memref<f32>
    %7 = memref.alloc() {alignment = 128 : i64} : memref<f32>
    memref.copy %6, %7 : memref<f32> to memref<f32>
    scf.for %arg1 = %c0 to %c1 step %c1 {
      scf.for %arg2 = %c0 to %c11 step %c1 {
        %8 = memref.load %5[%arg1, %arg2] : memref<1x11xf32>
        %9 = memref.load %7[] : memref<f32>
        %10 = arith.addf %8, %9 : f32
        memref.store %10, %7[] : memref<f32>
      }
    }
    return %7 : memref<f32>
  }
}
